notebooks/slotattention.pt (torch, 252131 bytes, 50 tensors)

encoder_cnn.conv1.weight f4 [16, 3, 5, 5]
0	0x3e1e7f6f	0.154783
1	0x3d232b29	0.039836083
2	0xba8e9499	-0.0010878026
3	0x3d866b33	0.065634154
4	0x3d8ce70c	0.06880006
5	0x3ddd984a	0.108200625
6	0xbd12d710	-0.03584963
7	0xbdad6c34	-0.08467904
8	0x3d0d9929	0.034569893
9	0x3d9b87f6	0.07594292
10	0x3bec4fe3	0.0072116717
11	0xbd43e41b	-0.04782496
12	0xbdce34e0	-0.10068679
13	0xbd23a7da	-0.039954998
14	0x3c3803e0	0.011231393
15	0x3d0d1bc9	0.034450326
16	0x3d1c1e20	0.038114667
17	0x3d27c097	0.040955152
18	0x3be46c34	0.0069709066
19	0xbb4eadcb	-0.0031536694
20	0x3d104d72	0.035230108
21	0x3a6b1c0b	0.00089687173
22	0x3d1ecbb4	0.038768485
23	0x3c079e90	0.00827755
24	0x3d9a7f27	0.07543784
25	0x3df1e6cd	0.118116
26	0x3d5732a1	0.052538518
27	0x3cd32b0b	0.02577736
28	0x3ddd7541	0.1081338
29	0x3e023a16	0.1271747
30	0x3dc8b89d	0.09800837
31	0xbc19180d	-0.009344113
32	0xbd71defe	-0.059050553
33	0x3d629db7	0.05532619
34	0x3dc03254	0.09384599
35	0xbc2ead44	-0.010661427
36	0xbd413504	-0.0471697
37	0xbdd0b137	-0.10190051
38	0xbd3404c3	-0.043949854
39	0x3ce5b546	0.02804054
40	0x3d2aa4f2	0.04166121
41	0xbc21b5a9	-0.009869971
42	0xb9eafe7d	-0.00044821567
43	0xbc6d17a6	-0.01447097
44	0x3cb531aa	0.022118408
45	0x3e17a0af	0.1480739
46	0x3d4460a9	0.047943745
47	0x3d5e8316	0.054324232
48	0x3cc3316c	0.023827277
49	0x3e026c56	0.1273664
50	0x3dee21a2	0.11627509
51	0x3d29e4b6	0.04147788
52	0xbc041fbc	-0.008064207
53	0x3dc3952f	0.09549939
54	0x3e1c6265	0.1527191
55	0x3da85230	0.08218801
56	0xbc742000	-0.0149002075
57	0xbd84b5c6	-0.06479983
58	0x3d69c7fe	0.057075493
59	0x3e1005cd	0.14064713
60	0x3b8a583c	0.004221944
61	0xbd45237f	-0.048129555
62	0xbdc5e0b8	-0.09662002
63	0xbd4fea6f	-0.050760683
64	0x3bd10304	0.0063785333
65	0x3d613e10	0.054990828
66	0x3c74f365	0.014950608
67	0x3c9d3804	0.01919175
68	0xbb0c9584	-0.0021451423
69	0x3b5c4bfd	0.0033614628
70	0x3dd23ee9	0.102659054
71	0x3da93d1f	0.08263611
72	0x3d461e34	0.048368648
73	0x3cb46824	0.022022314
74	0x3e06dc4a	0.13169971
75	0x3e1b4115	0.15161546
76	0x3db691e8	0.08914548
77	0xbe794c4b	-0.2434551
78	0xbe3e69f1	-0.18595101
79	0xbd0580ed	-0.032593656
80	0xbe29d49e	-0.16585013
81	0x3b6c2c0b	0.0036036994
82	0xbdc914b7	-0.09818404
83	0x3d6301da	0.055421688
84	0x3d061426	0.03273406
85	0xbca5f2f2	-0.020257447
86	0x3da4464e	0.08021222
87	0x3dac2b0d	0.08406649
88	0x3de525a9	0.11188824
89	0xbd65cb4f	-0.056102093
90	0xbd2ae2bc	-0.041720137
91	0xbdc73585	-0.09727005
92	0x3c5ae03a	0.013359124
93	0xbdd14483	-0.10218146
94	0xbdee1cb6	-0.1162657
95	0x3e3faa28	0.18717253
96	0x3d1c5c36	0.038173877
97	0xbd6a6a9e	-0.057230584
98	0xbd2a4f19	-0.04157934
99	0x3d8dc20e	0.069217786
100	0x3e226d7f	0.15862082
101	0x3daf58b2	0.08561839
102	0x3dca4500	0.09876442
103	0xbdc89336	-0.09793703
104	0xbe6c4429	-0.23072876
105	0x3ce527b2	0.02797303
106	0x3dd911f6	0.10599129
107	0x3da8477c	0.082167596
108	0xbd631765	-0.055442233
109	0xbe3a031c	-0.18165249
110	0x3d594f92	0.0530544
111	0x3dac8bd8	0.084251106
112	0x3d0552f2	0.032549806
113	0xbc104eda	-0.008807862
114	0x3d138426	0.0360147
115	0xbd88463f	-0.066540234
116	0xbd9e13c4	-0.07718614
117	0xbd21cd27	-0.03950229
118	0xbe3f717d	-0.18695636
119	0xbe101f08	-0.14074337
120	0x3d8cbd60	0.06872058
121	0x3d0b7db6	0.034055434
122	0x3b0e3b25	0.0021702733
123	0x3d1b549b	0.037922483
124	0x3e887092	0.26648384
125	0xbdbd4087	-0.09240823
126	0xbe26bf27	-0.16283856
127	0xbdb7902c	-0.089630455
128	0x3e2624e5	0.16225012
129	0x3e8893fc	0.26675403
130	0xbe3e5f75	-0.18591101
131	0xbd8d8dd4	-0.06911817
132	0x3d4fe372	0.050754018
133	0x3e1e5d8b	0.15465371
134	0x3e1b6cad	0.15178175
135	0x3d2d6b69	0.042338762
136	0x3d2cceb2	0.042189308
137	0xbd87294e	-0.06599675
138	0xbdc58121	-0.0964377
139	0xbe60e865	-0.21963651
140	0xbd4d9b6b	-0.050197046
141	0xbe4e002d	-0.20117255
142	0xbccb707b	-0.024833908
143	0xbe93d7ea	-0.28875667
144	0xbe2c440c	-0.16822833
145	0x3e2f788a	0.17135826
146	0xbc933583	-0.017969852
147	0x3c215af5	0.009848346
148	0x3d599c04	0.053127304
149	0x3e92f809	0.2870486
150	0xbd50613a	-0.050873972
151	0xbe54fea3	-0.20800261
152	0xbe340c4b	-0.17582814
153	0xbe01627a	-0.12635222
154	0xbe69dd94	-0.22838432
155	0x3b392fc2	0.0028257226
156	0xbc47a973	-0.012186396
157	0x3e1b9b00	0.15195847
158	0x3d90d66c	0.07072148
159	0xbe1a351d	-0.15059324
160	0xbe47927d	-0.19489475
161	0xbd24cb31	-0.04023284
162	0x3c4439de	0.011976687
163	0x3cde9318	0.02716975
164	0xbce0b267	-0.027428819
165	0xbe21d889	-0.15805258
166	0xbd1a2c7f	-0.03764009
167	0xbd9c31db	-0.07626697
168	0xbb35c4a6	-0.002773562
169	0xbd0352bd	-0.032061327
170	0x3de7803c	0.11303756
171	0x3dae3009	0.08505256
172	0xbbfffdfe	-0.0078122607
173	0x3db7abda	0.08968325
174	0x3d99888a	0.07496746
175	0xbe01c6cb	-0.1267349
176	0xbec665c0	-0.38749504
177	0xbec5224e	-0.38502735
178	0xbe98b42e	-0.29824966
179	0xbe92fe16	-0.28709477
180	0xbdd671ba	-0.1047091
181	0xbd839344	-0.06424573
182	0x3e123a3c	0.14280027
183	0x3d4c31e7	0.049852278
184	0xbe779619	-0.24178351
185	0xbe89d2b9	-0.2691858
186	0xbba3941a	-0.0049920203
187	0x3c865186	0.016396295
188	0x3d24a96e	0.040200643
189	0xbd90b3ca	-0.07065542
190	0xbe03ccc0	-0.12871075
191	0x3cf456b6	0.029826503
192	0xbcffcca7	-0.031225516
193	0x3c6113e7	0.013737655
194	0xbcd79536	-0.026316267
195	0x3c431ae1	0.011908264
196	0x3dd60f6e	0.10452162
197	0x3cd9a595	0.026568213
198	0x3dd4ea3e	0.10396241
199	0x3de46ea5	0.11153916
200	0xbe3e5f09	-0.1859094
201	0xbe90dece	-0.28294986
202	0xbde29c7c	-0.11065003
203	0xbe2e2d6d	-0.17009516
204	0xbf14f7c9	-0.5819059
205	0xbd9d2e9f	-0.07674908
206	0xbe4c3f41	-0.19946004
207	0x3e24c808	0.16091931
208	0x3dac5d50	0.084162354
209	0xbe7dfa0d	-0.24802418
210	0xbea1c222	-0.31593424
211	0xbdcdc2b8	-0.10046905
212	0x3a1b27b4	0.0005918697
213	0x3d7439da	0.059625484
214	0xbd2320d6	-0.039826237
215	0xbd995fb2	-0.074889556
216	0x3d136952	0.035989113
217	0xbc91fcad	-0.01782068
218	0x3d29f25c	0.041490898
219	0xbc65b019	-0.014019036
220	0x3d148230	0.03625697
221	0x3dcdc3b9	0.10047097
222	0x3cab7f0d	0.020934606
223	0x3dd0a156	0.101870224
224	0x3d9d73f7	0.07688134
225	0xbd0b7553	-0.034047436
226	0xbe23abf8	-0.1598357
227	0xbcb93ff3	-0.022613501
228	0xbc52966d	-0.012853247
229	0xbe092c58	-0.13395822
230	0x3dfee7a4	0.12446526
231	0xbc3a6189	-0.011375793
232	0x3daffd46	0.0859323
233	0x3d6f485e	0.058418624
234	0xbdefd5e4	-0.11710718
235	0x3d7252f5	0.059161145
236	0xbd59c8da	-0.053170063
237	0xbe081af7	-0.13291536
238	0xbee3d051	-0.4449487
239	0x3cb5a3db	0.022172859
240	0x3bcba9dc	0.006215317
241	0xbdd0a50e	-0.10187732
242	0x3d50c9d0	0.050973713
243	0xbde292f9	-0.11063189
244	0x3df059c1	0.11735869
245	0x3d793bb5	0.060847957
246	0xbcf66c2d	-0.03008088
247	0xbc777896	-0.0151044335
248	0x3c83f772	0.016109202
249	0x3d45fc08	0.04833606
250	0xbe3c9ede	-0.18419978
251	0xbd407703	-0.0469885
252	0x3dec3043	0.11532643
253	0x3dec6814	0.11543289
254	0xbd44cd5d	-0.048047412
255	0xbe41ea40	-0.18937016

encoder_cnn.conv1.bias f4 [16]
0	0xbe2e451e	-0.17018554
1	0x3b5dba65	0.0033833024
2	0x3e21cb8a	0.158003
3	0x39adc052	0.0003314042
4	0x3dc3f896	0.095688984
5	0x3e0852fa	0.13312903
6	0xbc0cf201	-0.00860262
7	0x396c4d7f	0.00022535583
8	0x3dbeb4e1	0.09311844
9	0x3d60be8e	0.054869227
10	0x3deb6772	0.1149434
11	0x3c213186	0.009838467
12	0xbaf3b206	-0.0018592484
13	0xb816e981	-3.5980254e-05
14	0x3d955171	0.07290924
15	0xbc9d98e7	-0.019237949

encoder_cnn.conv2.weight f4 [16, 16, 5, 5]
0	0x3ce9a686	0.028521787
1	0x3d01bc64	0.031673804
2	0xbbea7bfe	-0.0071558943
3	0x3c2b28aa	0.010446707
4	0x3e00b261	0.12568046
5	0xbce58522	-0.028017584
6	0xbc98fa65	-0.018674085
7	0x3cfa2ed7	0.030539913
8	0xbcdbb50d	-0.02681973
9	0xba3c64b0	-0.00071866345
10	0xbd9c50e1	-0.07632614
11	0xbd593660	-0.05303037
12	0x3d1a0cf8	0.037610024
13	0xbb08e921	-0.0020890909
14	0xbd10532f	-0.03523558
15	0xbda431c7	-0.08017307
16	0xbd8643ff	-0.06555938
17	0x3caf3cca	0.021391291
18	0x3d01962c	0.031637356
19	0xbcc778c0	-0.02434957
20	0xbdd33ceb	-0.103143536
21	0xbd118a88	-0.035532504
22	0x3c7bf2e3	0.015377733
23	0x3cdaec02	0.026723865
24	0xbd20a0f1	-0.039215986
25	0xbdac0111	-0.08398641
26	0xbe1c4de8	-0.15264094
27	0xbd8f94dd	-0.07010815
28	0x3dfd7efc	0.12377736
29	0xbd2a626c	-0.04159777
30	0x3d0a3185	0.03373863
31	0x3dd6ecba	0.10494371
32	0x3d0f6d35	0.035016257
33	0x3d5669c7	0.05234697
34	0xbd8d2919	-0.068926044
35	0x3d4821d6	0.048860393
36	0x3d040774	0.03223367
37	0xbcb3ae8d	-0.021933818
38	0x3dc0897c	0.09401223
39	0x3ced8edb	0.028998783
40	0xbc9fa892	-0.01948956
41	0xbd388ba8	-0.04505506
42	0x3d0a5e9a	0.033781625
43	0x3ca83e58	0.02053754
44	0xbdd65ed1	-0.104673035
45	0x3da0e5b5	0.07856313
46	0xbdcdb350	-0.10043967
47	0xbd0572a1	-0.03258002
48	0x391d216d	0.00014985139
49	0xbe13f4c4	-0.1444884
50	0x3d8691c1	0.06570769
51	0xbd0349eb	-0.032052916
52	0xbca66dc3	-0.02031601
53	0x3db84b27	0.08998709
54	0xbe0d720d	-0.13813038
55	0x3ccfcdbb	0.025366655
56	0x3c5354d5	0.0128986435
57	0xbddaeaf1	-0.10689343
58	0x3d52da8f	0.051477965
59	0xbe1f7d53	-0.15575151
60	0x3d752263	0.059847247
61	0xbd230c83	-0.039806854
62	0xbe0b4eb3	-0.1360424
63	0xbd52edba	-0.051496245
64	0xbdf8990d	-0.12138567
65	0x3cc01339	0.023446666
66	0xbae1d7f2	-0.0017230494
67	0xbd59ef7b	-0.053206902
68	0xbaaca1c8	-0.0013170773
69	0xbd12112d	-0.03566091
70	0xbc873fb2	-0.016509864
71	0x3e180941	0.1484728
72	0x3d3c0086	0.045898937
73	0x3cde4fe1	0.027137699
74	0x3ce4d9a8	0.027935818
75	0xbdd97509	-0.10618026
76	0x3d78207d	0.06057786
77	0x3e3fa0f4	0.18713742
78	0x3d6e5724	0.058188573
79	0x3dc8ddbf	0.0980792
80	0x3cb4a175	0.022049645
81	0x3df8dd97	0.1215164
82	0x3da9e763	0.08296087
83	0x3d0cf6ac	0.034414932
84	0xbe7dd5b0	-0.24788547
85	0x3da38e15	0.07986084
86	0x3d1ebed3	0.038756203
87	0x3bbf2b48	0.005834017
88	0xbd6a8c3c	-0.057262644
89	0x3e0d90d8	0.13824785
90	0xbad21618	-0.0016028313
91	0xbdc123b3	-0.09430637
92	0xbd6461fc	-0.055757508
93	0xbe14f7fc	-0.14547724
94	0x3df0c75d	0.117567755
95	0x3e076bf3	0.13224773
96	0x3c982cc0	0.018576026
97	0x3d1c904f	0.03822356
98	0xbd5cdefd	-0.053923596
99	0xbd61d3d2	-0.05513365
100	0x3ca679ee	0.020321812
101	0xbd0c539d	-0.034259427
102	0x3d9d7609	0.07688529
103	0x3d4b3487	0.04961064
104	0x3d545f66	0.05184879
105	0xbca34ab5	-0.019933084
106	0xbd1ad9bd	-0.037805308
107	0x3e06db9b	0.1316971
108	0x3d62644b	0.055271428
109	0x3a439d9f	0.0007462147
110	0x3c188a4b	0.009310315
111	0x3c632433	0.013863611
112	0x3d912645	0.070873775
113	0xbbf490d5	-0.0074635544
114	0xbd564637	-0.052313056
115	0x3d9befb6	0.076140806
116	0x3d41f181	0.047349457
117	0x3d57ce13	0.052686762
118	0x3d447b57	0.04796919
119	0xbcab494b	-0.020908972
120	0xbde28175	-0.11059848
121	0xbe1bf5ee	-0.15230533
122	0xbe53019e	-0.20606086
123	0xbe38df86	-0.18054017
124	0x3dc0dcc1	0.094171055
125	0x3e31358c	0.17305583
126	0x3d877d8e	0.066157445
127	0xbc634cbf	-0.013873278
128	0xbbd4297b	-0.0064746714
129	0x3e0c36e3	0.13692813
130	0x3e10fed4	0.14159709
131	0x3e036524	0.12831551
132	0x3d3e0655	0.046392757
133	0x3da4b4a2	0.080422655
134	0x3de4864e	0.11158429
135	0xbdd2c085	-0.102906264
136	0x3d90b3de	0.07065557
137	0x3c74f9c0	0.014952123
138	0x3d7e46dd	0.0620793
139	0x3d3a072e	0.045417003
140	0xbe85163f	-0.25993535
141	0xbe752031	-0.23938061
142	0xbcbefa27	-0.023312641
143	0x3db8740b	0.090065084
144	0x3d1c85b6	0.038213454
145	0xbd9b7243	-0.07590153
146	0xbec4f487	-0.3846781
147	0x3c13957b	0.009007807
148	0x3dcf3248	0.10117012
149	0x3d0e33f0	0.0347175
150	0x3d3905a1	0.045171384
151	0xbdaf5451	-0.08561004
152	0xbe45b466	-0.19307098
153	0xbce377e9	-0.027767139
154	0x3cc50b59	0.024053263
155	0x3c761c81	0.015021444
156	0xbe28db19	-0.16489829
157	0xbd2b085d	-0.041756023
158	0xbce42a14	-0.027852096
159	0xbda18b19	-0.07887859
160	0xbe3d4dbc	-0.18486685
161	0xbd988976	-0.074480936
162	0xbd0b8f6c	-0.034072325
163	0xbd45f6e4	-0.048331156
164	0xbcccc0da	-0.024994303
165	0xbe1e39b2	-0.15451697
166	0xbe6f7c84	-0.23387343
167	0xbcad0e65	-0.021125028
168	0xbd6e81b6	-0.05822917
169	0xbe14023b	-0.14453976
170	0xbc902755	-0.01759688
171	0xbe13e766	-0.1444374
172	0x3dc81885	0.09770302
173	0x3cf0dd23	0.029402321
174	0xbdc7c6ab	-0.0975469
175	0xbeda41ad	-0.42628232
176	0x3c958e33	0.018256282
177	0x3e23cbf2	0.15995768
178	0xbe15af69	-0.14617695
179	0xbe7f9ff1	-0.24963357
180	0xbe1e56dd	-0.15462823
181	0xbe4197c9	-0.18905558
182	0xbef12ad0	-0.47102976
183	0xbe277eef	-0.16357015
184	0x3e1a5c76	0.15074334
185	0x3dc231cd	0.09482155
186	0xbe858a91	-0.2608228
187	0xbe7a47c8	-0.24441445
188	0x3d27d3d4	0.0409735
189	0x3e484e7c	0.1956119
190	0x3cd1cd08	0.025610462
191	0xbee17003	-0.4403077
192	0xbf186961	-0.59535795
193	0xbeb7161f	-0.35759065
194	0x3d575760	0.05257356
195	0xbd8547b3	-0.06507816
196	0xbe4495a0	-0.19197702
197	0xbe1f5e3e	-0.15563294
198	0xbc78503b	-0.015155847
199	0xbde6fe02	-0.11278917
200	0xbcf71145	-0.030159602
201	0xbd22874b	-0.039679807
202	0xbd127e6e	-0.035765104
203	0x3d8af021	0.06784082
204	0x3c876e6f	0.016532151
205	0x3d77232d	0.06033628
206	0x3d90991a	0.07060452
207	0xbe254b1d	-0.16141935
208	0xbdd0f801	-0.10203553
209	0xbd8891af	-0.06668412
210	0x3c29e6e7	0.010369993
211	0x3e163de8	0.14672053
212	0x3e1023b6	0.14076123
213	0xbc032b63	-0.00800595
214	0xbdb685b8	-0.089122236
215	0xbd307711	-0.0430823
216	0x3e1bc235	0.15210803
217	0x3d8b98f6	0.06816284
218	0xbe317308	-0.17329037
219	0xbb6d9100	-0.0036249757
220	0xbe1dac08	-0.15397656
221	0xbb9b14d2	-0.0047327066
222	0x3c8b6323	0.017015046
223	0xbcda3c4d	-0.026640082
224	0x3cf0b3c4	0.029382594
225	0x3daba32e	0.083807334
226	0xbb2685bc	-0.0025409302
227	0xbdb65c47	-0.08904319
228	0xbdefc249	-0.11706979
229	0x3bfc4e9b	0.0076998
230	0x3dd1329a	0.102147296
231	0x3d8b6ae1	0.06807495
232	0xbdc012d2	-0.0937859
233	0xbe0aa018	-0.13537633
234	0x3d835aae	0.0641378
235	0x3de64c46	0.11245017
236	0x3d7368db	0.05942617
237	0x3d202328	0.039096028
238	0xbe6d9fe3	-0.23205523
239	0xbe066626	-0.13124904
240	0xbbe47689	-0.0069721383
241	0x3c1ed0d8	0.009693347
242	0x3dbce21d	0.09222815
243	0xbe6b9521	-0.23006107
244	0xbdff60f9	-0.12469668
245	0x3b0acc8e	0.0021179053
246	0x3e1ac222	0.15113118
247	0x3e415d2b	0.18883197
248	0xbdad6f59	-0.084685035
249	0xbdf440c8	-0.119264185
250	0x3dc1facc	0.09471664
251	0xbceda4a6	-0.029009175
252	0xbd6f9f2a	-0.0585014
253	0x3d129e80	0.03579569
254	0x3c99cf1a	0.018775512
255	0x3dc6ab2f	0.097006194

encoder_cnn.conv2.bias f4 [16]
0	0x3bb7648a	0.005596702
1	0x3dc5a5f7	0.09650796
2	0xbc37f586	-0.011227971
3	0x3df88a73	0.12135782
4	0x3e1617bb	0.1465749
5	0xba1e2c90	-0.0006033862
6	0x3e6d5460	0.23176718
7	0xb9ec2204	-0.0004503877
8	0xbd0690b1	-0.032852832
9	0x3cbe92ac	0.023263298
10	0x3e022ba8	0.12711966
11	0x3dd5982a	0.104294136
12	0x3cf980ec	0.030456983
13	0xbb55c294	-0.0032617198
14	0x3b60afa5	0.003428438
15	0xbcc0a24f	-0.023514895

encoder_cnn.conv3.weight f4 [16, 16, 5, 5]
0	0xbe5aeb0e	-0.21378729
1	0xbe290708	-0.16506588
2	0xbc275717	-0.010213635
3	0xbd994448	-0.07483727
4	0x3d99f52a	0.075174645
5	0xbe2f697a	-0.1713008
6	0x3dfd97a5	0.123824395
7	0x3e15ab89	0.14616217
8	0xbe19e301	-0.15028001
9	0xbc9675c6	-0.018366706
10	0x3b951ea3	0.0045507713
11	0x3db5544e	0.088539705
12	0x3d5d3602	0.054006584
13	0xbddf7e23	-0.109127305
14	0xbdd14b66	-0.10219459
15	0x3c5fd155	0.0136607485
16	0x3d4c7989	0.049920592
17	0xbc148abe	-0.009066282
18	0xbdd66246	-0.10467963
19	0x3da1e6c9	0.07905347
20	0x3d159275	0.036516625
21	0x3cf25711	0.029582532
22	0xbc452b7a	-0.012034291
23	0xbcbe287f	-0.02321267
24	0x3db4a735	0.08820955
25	0x3cf28775	0.029605607
26	0x3bc8fc77	0.006133612
27	0xbc48b5a4	-0.012250338
28	0xbcd6312e	-0.026146498
29	0xbd349f5b	-0.044097286
30	0xbc87476b	-0.016513547
31	0xbcf9eba5	-0.030507872
32	0xbcd2e537	-0.025744064
33	0xbd4d77e2	-0.050163157
34	0xbd6d3282	-0.057909496
35	0x3cb77e65	0.022399137
36	0x3cd897a9	0.026439505
37	0x3ccd322c	0.025048338
38	0xbc1e4188	-0.009659179
39	0x3c29cecc	0.010364246
40	0xbc175b50	-0.009238079
41	0x3c231d39	0.009955698
42	0xbbd97c0d	-0.0066371025
43	0xbd0ec5ab	-0.03485648
44	0x3c1ab55c	0.0094426535
45	0x3d73a122	0.05947984
46	0x3d552c3f	0.05204415
47	0xbbb56ab2	-0.0055364007
48	0xbd4ac0bf	-0.049500223
49	0xbce5e2ad	-0.028062189
50	0x3d886f8e	0.06661902
51	0x3dbb37a9	0.09141476
52	0x3d7e46e8	0.06207934
53	0x3d4ae00d	0.049530078
54	0x3e312ed7	0.17303024
55	0xbe36b469	-0.17842259
56	0xbdb4cf5f	-0.088286154
57	0xbd54d73a	-0.05196307
58	0xbd64acd4	-0.055828884
59	0x3d516ce2	0.05112923
60	0xbd36f555	-0.04466756
61	0xbd32d657	-0.04366144
62	0xbe947599	-0.2899597
63	0xbe3626dc	-0.17788261
64	0x3db080ff	0.08618354
65	0xbccdbb16	-0.025113624
66	0xbd81161c	-0.06303045
67	0xbdb5d627	-0.08878737
68	0xbe1ab79b	-0.15109102
69	0x3d581829	0.052757416
70	0x3d9f1d49	0.077692576
71	0x3d3dcaf8	0.046336144
72	0x3da13d83	0.078730606
73	0x3d940ccb	0.072290026
74	0x3e15d0fb	0.14630501
75	0xbd20ac2a	-0.03922669
76	0x3d01de1c	0.03170596
77	0xbc4225fc	-0.0118498765
78	0x3d2c4020	0.042053342
79	0x3c709031	0.014682815
80	0xbd2f7dd1	-0.042844597
81	0x3cc574f7	0.024103625
82	0xbdb06cb4	-0.086144835
83	0xbceef182	-0.029167894
84	0xbd531f5c	-0.05154358
85	0xbdd5b736	-0.10435335
86	0x3cbcb263	0.02303428
87	0xbdded378	-0.10880178
88	0xbd53e778	-0.051734418
89	0x3dcad0d9	0.09903116
90	0x3cacbd1b	0.021086266
91	0x3d9f570c	0.07780275
92	0xbc18e30f	-0.009331479
93	0xbd6d9bae	-0.058009796
94	0x3bf14561	0.007363007
95	0x3d24c613	0.04022796
96	0x3d4dc954	0.05024083
97	0xbc6fa2df	-0.014626234
98	0xbd24eac3	-0.04026295
99	0xbc04b6bf	-0.008100211
100	0x3df39530	0.1189369
101	0x3e9905ae	0.29887146
102	0x3e80e315	0.2517325
103	0x3e4a5fdc	0.1976313
104	0xbd4d0194	-0.050050333
105	0x3eac0e11	0.33604482
106	0x3e838134	0.25684512
107	0x3e5e385d	0.21701188
108	0x3d84dda6	0.064875886
109	0xbe4cce85	-0.20000656
110	0xbf021da4	-0.5082648
111	0xbe492cf7	-0.19646059
112	0xbe429d03	-0.19005208
113	0xbf3023df	-0.68804735
114	0x3df600e0	0.12011886
115	0xbe4fcf29	-0.20293869
116	0xbcf9655b	-0.030443838
117	0x3e1182f9	0.14210118
118	0xbf143bac	-0.5790355
119	0x3f2fa57e	0.68611896
120	0xbe0fc033	-0.14038162
121	0xbdb8d4a3	-0.09024932
122	0x3b42512a	0.0029650428
123	0xbefffdbb	-0.49998268
124	0xbed037e5	-0.40667644
125	0xb9a403b6	-0.00031283282
126	0x3a275df8	0.0006384547
127	0xba047529	-0.00050528586
128	0xbaafded2	-0.0013417846
129	0x3af3580c	0.0018565669
130	0xbb0293a9	-0.0019924438
131	0xbad481f9	-0.0016213051
132	0x3a2b4639	0.00065335963
133	0x3ade22ab	0.0016947588
134	0x3a6b4d5b	0.00089760654
135	0xbb985b50	-0.004649557
136	0x3a3d2368	0.0007215054
137	0x3b93a886	0.0045061735
138	0xb9c7605b	-0.00038028028
139	0xb9f8186d	-0.00047320445
140	0xba63d3cd	-0.00086909236
141	0xbbb29355	-0.0054496923
142	0xbb7fa589	-0.0039008579
143	0xbc1e3843	-0.0096569685
144	0xba8e573a	-0.0010859736
145	0xbc7ae3d5	-0.015313108
146	0xbcb72b68	-0.022359565
147	0xbc35a805	-0.011087422
148	0x3bc388c5	0.005967232
149	0x3c51084f	0.012758329
150	0x3ccd5e62	0.02506942
151	0xbcf3dc1c	-0.029768042
152	0xbd03d203	-0.032182705
153	0xbe52b237	-0.20575796
154	0xbe71df17	-0.23620258
155	0x3dd15ea7	0.102231316
156	0x3d4ffc4f	0.05077773
157	0x3d081ea7	0.033232357
158	0xbd2adb1d	-0.04171287
159	0xbdc870d5	-0.09787146
160	0x3e374257	0.178964
161	0xbceed49f	-0.02915412
162	0xbdbb8357	-0.091559105
163	0x3c201dda	0.009772742
164	0x3dd3fbfa	0.10350795
165	0x3e47e208	0.19519818
166	0xbc13772e	-0.009000583
167	0x3cdb6ded	0.026785815
168	0xbd433622	-0.047659047
169	0x3d8a893b	0.06764456
170	0x3e50ea83	0.20401959
171	0x3dc704a1	0.0971768
172	0x3db27cc0	0.087152004
173	0x3db8fd0d	0.090326406
174	0x3de9052f	0.11377942
175	0x3a89bdba	0.0010508813
176	0xb9827156	-0.00024879974
177	0xbab213fd	-0.0013586279
178	0x3b26f56b	0.002547587
179	0xba97ac59	-0.0011571749
180	0xbaed0dbd	-0.0018085759
181	0x3afe8a86	0.0019419945
182	0x3a18a2af	0.00058225816
183	0x3a2e1703	0.0006641002
184	0xbb3a3d75	-0.002841798
185	0x3ac39d88	0.0014924267
186	0x3aa0dae9	0.0012272272
187	0xbadb23fd	-0.0016719099
188	0xba825edc	-0.0009946483
189	0x3a0cdc77	0.0005373428
190	0xba96d21b	-0.0011506708
191	0x3b01fd61	0.0019834863
192	0xb80ca206	-3.3529497e-05
193	0xba8de666	-0.001082611
194	0xbb494ca4	-0.0030715847
195	0x3a99c2a3	0.001173098
196	0xb9e66ba3	-0.00043949214
197	0xbae18623	-0.0017206114
198	0xbb5aea12	-0.0033403677
199	0xbb31d9e2	-0.0027137925
200	0x3e36d774	0.17855626
201	0x3d8f9b1c	0.07012007
202	0x3d64e5f5	0.055883367
203	0x3decfbf9	0.115714975
204	0x3e02eb51	0.12785079
205	0xbe448635	-0.19191821
206	0x3d1cc552	0.038274117
207	0x3d5273dd	0.051380027
208	0x3e1f6431	0.15565564
209	0x3e3ada20	0.1824727
210	0xbe462fae	-0.19354126
211	0xbe457622	-0.19283345
212	0x3d057a88	0.032587558
213	0xbed537c4	-0.41644108
214	0xbda2e7d0	-0.07954371
215	0x3caf882d	0.021427238
216	0xbc85a7dc	-0.016315393
217	0x3da086fa	0.07838245
218	0x3d15af8e	0.036544375
219	0xbe272410	-0.1632235
220	0x3d655698	0.055990785
221	0x3d800ab5	0.06252042
222	0x3d6c066e	0.05762332
223	0xbd92c113	-0.07165732
224	0xbdbaa09a	-0.091126636
225	0x3c1ae993	0.0094551025
226	0x3d9ea7b4	0.077468306
227	0x3cfb29de	0.030659612
228	0xbd609a27	-0.05483451
229	0xbd2e4bc9	-0.042552743
230	0xbb23c46c	-0.0024988903
231	0x3d396919	0.045266245
232	0x3d98a3e3	0.07453134
233	0x3c6f3c10	0.014601722
234	0xbd81f85c	-0.06346199
235	0xbe06e6c1	-0.13173963
236	0xbe044340	-0.12916279
237	0x3d5dd38e	0.054156832
238	0x3de1e523	0.110300325
239	0x3d921d5c	0.07134506
240	0x3dce180c	0.1006318
241	0x3d3d360a	0.046194114
242	0xbc9ce12d	-0.01915034
243	0xbe3c26d6	-0.1837419
244	0xbe1498ab	-0.14511363
245	0x3dbffbf6	0.093742296
246	0x3dbdd74f	0.092695825
247	0x3d209384	0.039203182
248	0xbda884ec	-0.08228478
249	0xbdad6b8c	-0.084677786
250	0x3bce65ba	0.006298748
251	0xbc51ed14	-0.0128128715
252	0xbc2009b7	-0.009767941
253	0x3d012762	0.0315317
254	0x3d6e64db	0.058201652
255	0x3c39a7b5	0.011331488

encoder_cnn.conv3.bias f4 [16]
0	0xbd039628	-0.032125622
1	0x3cf59724	0.029979296
2	0xbd9e393e	-0.07725762
3	0xbbf83caf	-0.0075755934
4	0xbba976ed	-0.0051716478
5	0x3d4462e1	0.04794586
6	0xbb91159a	-0.004427624
7	0x3c1183e2	0.008881541
8	0x3da62c9d	0.08113978
9	0xbc8d83f4	-0.017274834
10	0xbcd3998e	-0.025830057
11	0x3e1489b0	0.14505649
12	0x3c5f5f7b	0.013633604
13	0xbb978520	-0.004624024
14	0x3ceeb348	0.029138222
15	0x3d6a33ae	0.05717819

encoder_cnn.conv4.weight f4 [16, 16, 5, 5]
0	0xbdcf4df0	-0.10122287
1	0x3c850bbc	0.016240947
2	0x3d0bdafe	0.034144394
3	0x3bcd20cc	0.006260013
4	0xbd871133	-0.06595077
5	0x3d88296d	0.06648526
6	0x3d0c9c77	0.034328904
7	0x3c4e8150	0.012604073
8	0x3cf5866f	0.02997133
9	0x3b96de8f	0.004604168
10	0x3d22fda1	0.03979266
11	0x3c400009	0.011718758
12	0xbbbccc2f	-0.0057616453
13	0x3c883fa2	0.016631905
14	0xbd6111b5	-0.054948527
15	0x3d5ee296	0.054415308
16	0x3ca08e64	0.019599147
17	0xbd2a91df	-0.04164302
18	0x3d9c9bee	0.07646929
19	0xbbf4fee4	-0.0074766744
20	0x3e197c02	0.14988711
21	0x3d7fd6da	0.062460758
22	0xbd4290b8	-0.047501296
23	0x3b808b9e	0.0039228937
24	0x3bbe92e2	0.0058158496
25	0x3db333fd	0.0875015
26	0xbc92b5c2	-0.017908935
27	0x3da57e07	0.080806784
28	0x3d24135b	0.04005752
29	0xbd413a93	-0.047175
30	0x3d17e869	0.037086878
31	0x3d35842d	0.044315506
32	0x3d99d282	0.07510854
33	0x3cd43e9a	0.025908757
34	0xbc02cc2c	-0.007983249
35	0x3d2f74fe	0.04283618
36	0x3d2447c4	0.040107504
37	0x3c96c2bc	0.018403403
38	0x3c8cf1d4	0.017205156
39	0x3d6003bd	0.054691065
40	0x3d2e7a92	0.04259736
41	0xbc4b7f4d	-0.012420488
42	0xbc9026a9	-0.01759656
43	0x3ced0261	0.028931798
44	0x3d48f0f2	0.04905791
45	0xbc8f5bbc	-0.017499797
46	0xbd1923ac	-0.037387535
47	0x3d855af4	0.065114886
48	0x3d3cf030	0.0461275
49	0x3d546c11	0.051860873
50	0x3d7dbd93	0.06194837
51	0x3c8f4546	0.017489087
52	0xbd6b5282	-0.057451732
53	0xbe153b38	-0.14573371
54	0xbe5cdf1d	-0.21569486
55	0xbd1f58c4	-0.038903013
56	0xbc13971d	-0.009008196
57	0xbd036cef	-0.03208631
58	0xbdba615a	-0.091005996
59	0xbe12924b	-0.14313619
60	0xbd09ec40	-0.03367257
61	0xbc96d874	-0.01841376
62	0xbbb9f985	-0.005675497
63	0x3c52e4fe	0.012871979
64	0xbdbd7ce6	-0.09252338
65	0xbd4828b2	-0.048866935
66	0x3c042f86	0.008067971
67	0x3b430963	0.0029760234
68	0xba484aa8	-0.0007640519
69	0xbd7b7c6e	-0.061397962
70	0xbd319952	-0.04335911
71	0x3d8f4af7	0.0699672
72	0x3da66012	0.08123793
73	0xbb8df74a	-0.0043324577
74	0x3d0306d4	0.031988934
75	0x3bc855d2	0.006113746
76	0xbcb65c8b	-0.022260925
77	0x3b4d88db	0.003136209
78	0x3dffa665	0.12482909
79	0xbbc83968	-0.006110359
80	0xbd2af786	-0.041739963
81	0xbd3f18f8	-0.04665467
82	0xbd30713b	-0.043076735
83	0x3d419781	0.047263626
84	0x3c1f2dc7	0.009715504
85	0xbd323309	-0.043505702
86	0xbb1f2c6d	-0.0024287954
87	0x3d095b20	0.03353417
88	0x3bd5137b	0.0065025664
89	0x3cae677b	0.021289578
90	0xbbcf715f	-0.0063306536
91	0x3d89bb70	0.06725204
92	0x3d7f6697	0.062353697
93	0x3dc2ca5c	0.09511253
94	0x3d16b5f4	0.036794618
95	0x3791124b	1.7293865e-05
96	0x3d50d98b	0.050988715
97	0x3c40008f	0.011718883
98	0xbd9dd332	-0.07706298
99	0xbd5bf7ce	-0.05370312
100	0x3aca6916	0.0015442695
101	0xbb0388cc	-0.002007055
102	0x3abebb80	0.0014551729
103	0x3a4df329	0.0007856363
104	0xba8346a1	-0.0010015556
105	0x3b5cdacb	0.0033699747
106	0x3a44d993	0.0007509228
107	0x3ad5cc7e	0.0016311554
108	0x3b03b35a	0.0020095916
109	0x3a4cbb44	0.0007809887
110	0x3b672980	0.0035272539
111	0xb90cd021	-0.00013428974
112	0x3a13da3d	0.0005640125
113	0x3b8e296e	0.004338435
114	0x3b90ebe6	0.0044226525
115	0xb95c87ff	-0.00021031497
116	0x3abfa2b6	0.0014620635
117	0x3b97ed90	0.004636474
118	0x3a956852	0.0011398888
119	0xbad425c1	-0.0016185568
120	0x3acd42e6	0.0015660196
121	0x389bbef5	7.4265445e-05
122	0x3b039b77	0.0020081678
123	0x3a5611fc	0.0008166132
124	0xbb1d3c3d	-0.0023992204
125	0x3c780a3b	0.015139158
126	0xbd9f6577	-0.07783025
127	0x3ce67c18	0.028135344
128	0x3dd2b336	0.10288088
129	0x3cc8a61b	0.024493268
130	0x3d36242f	0.0444681
131	0xbc8bece7	-0.017080737
132	0xbce2e9f0	-0.02769944
133	0xbd6ff856	-0.05858644
134	0x3d665356	0.05623182
135	0x3d23216f	0.039826807
136	0x3cb7906d	0.022407735
137	0xbcbc3f2d	-0.022979343
138	0xbd638a39	-0.05555174
139	0xbd77a091	-0.060455862
140	0x3ca74137	0.020416839
141	0xbd3b7ca9	-0.045773182
142	0xbd1b4dd9	-0.03791604
143	0xbd2f0c52	-0.04273636
144	0xbd1930d0	-0.037400067
145	0x3d3fedfa	0.04685781
146	0xbc574612	-0.013139265
147	0x3c57ffd2	0.013183551
148	0x3d49d8fa	0.04927919
149	0x3d9e8a8a	0.07741268
150	0x3ae3dcce	0.001738453
151	0x3a1f35a8	0.0006073364
152	0x3ae6135d	0.0017553378
153	0xba0b994d	-0.0005325273
154	0x3a05314c	0.0005080893
155	0xb9958727	-0.0002852019
156	0xb97371fb	-0.00023216747
157	0x3a4e9a0b	0.00078812306
158	0xba360557	-0.0006943545
159	0xb90856f5	-0.00013002365
160	0x3b2f4e9b	0.0026749733
161	0xba861c38	-0.0010231799
162	0xbab8b8fb	-0.0014093214
163	0x395ec5bf	0.00021245236
164	0xb9fabf3e	-0.00047826202
165	0xb9896e9e	-0.00026213092
166	0x3a702c0f	0.00091618387
167	0x3ace8a71	0.0015757811
168	0x3b241945	0.0025039476
169	0x3b1e4933	0.0024152517
170	0x3ab2af29	0.0013632524
171	0x3a6e3ba4	0.00090878666
172	0xba596cfa	-0.0008294132
173	0x3ab41270	0.0013738405
174	0x39f4f32c	0.00046720484
175	0x3d546009	0.0518494
176	0x3d3a77ab	0.04552428
177	0xbc85d8c9	-0.016338723
178	0x3c85d7d6	0.01633827
179	0xbd49b319	-0.049243066
180	0xbd94bae1	-0.07262207
181	0xbd551e52	-0.05203087
182	0xbd0f1752	-0.03493435
183	0xbb77c651	-0.0037807415
184	0x3d6d7b15	0.05797871
185	0x3d3cf059	0.04612765
186	0x3c7cb2df	0.015423506
187	0x3d17bece	0.0370472
188	0x3cf12326	0.029435705
189	0x3dc77f11	0.09741033
190	0xbb8e84eb	-0.004349341
191	0x3cc5f715	0.02416567
192	0xbc0acc6f	-0.008471592
193	0x3b44e199	0.0030041693
194	0xbbe3b93c	-0.006949572
195	0xbc43df79	-0.0119551355
196	0xbb920130	-0.004455708
197	0xbcebdc38	-0.028791532
198	0xbd8e4a6e	-0.0694779
199	0xbd0ca634	-0.03433819
200	0x3d55a4d2	0.052159138
201	0x3d5d4028	0.054016262
202	0x3c284031	0.010269211
203	0xbc849338	-0.01618348
204	0xbd76f9ba	-0.06029675
205	0x3d7debce	0.06199246
206	0x3d2b51e8	0.04182616
207	0xbc86f3cb	-0.016473671
208	0xbcf74532	-0.030184362
209	0xbd3a8deb	-0.0455455
210	0x3dfcf82a	0.12352021
211	0x3d7c821b	0.061647516
212	0x3c758edc	0.014987674
213	0x3c53ae91	0.012920038
214	0xbc37c087	-0.011215336
215	0x3d9bb96e	0.07603727
216	0x3d076f45	0.0330651
217	0x3b5860a7	0.0033016594
218	0xbc363d32	-0.011122989
219	0x3c66e3da	0.01409241
220	0x3d3281f7	0.043580975
221	0x3c54db65	0.012991761
222	0x3d1b4943	0.037911665
223	0xbbfe7563	-0.0077654584
224	0xbd09ee37	-0.033674445
225	0x3cdfda06	0.027325641
226	0x3cfdc9aa	0.03097995
227	0x3cdc87dd	0.026920253
228	0x3d8d80e8	0.069093525
229	0x3d604610	0.054754317
230	0x3d1eef49	0.03880242
231	0xbd248eae	-0.040175132
232	0x3d79e514	0.06100948
233	0x3d2729b5	0.04081126
234	0xbc0c5c18	-0.008566879
235	0x3daba084	0.08380225
236	0xbd107ee8	-0.035277277
237	0xba46a2a0	-0.00075773336
238	0x3cceb67c	0.0252335
239	0x3c16a435	0.009194423
240	0x3de7322c	0.112888664
241	0x3d192ff4	0.037399247
242	0xbc626aeb	-0.013819437
243	0x3d01f811	0.031730715
244	0x3a498e32	0.000768873
245	0x3d1859a6	0.03719487
246	0xbd0db278	-0.03459403
247	0x3cb6ed7a	0.022330035
248	0xbbd03b50	-0.006354727
249	0x3c82fd0c	0.015989803
250	0xbe3cf6d2	-0.1845353
251	0xbc3f884c	-0.011690211
252	0xbc1a486d	-0.009416682
253	0xbc10b9a9	-0.008833327
254	0x3d9ceca5	0.07662324
255	0x3cd0381b	0.025417378

encoder_cnn.conv4.bias f4 [16]
0	0xbb970d4b	-0.004609739
1	0xbb728fa7	-0.0037011893
2	0x3cc371b4	0.023857929
3	0xba99d3f1	-0.0011736137
4	0xbb5d886e	-0.0033803242
5	0xbc1bfd61	-0.009520859
6	0xbb85104f	-0.004060782
7	0xbe213555	-0.15743001
8	0xb989566d	-0.00026195068
9	0xb7638a98	-1.3562523e-05
10	0x3d650235	0.055910308
11	0x3c79dd09	0.015250453
12	0xb72f69ee	-1.04554765e-05
13	0xba3bdb4e	-0.0007166163
14	0x3c9a92cd	0.018868828
15	0xbd91f323	-0.07126453

encoder_cnn.encoder_pos.embedding.weight f4 [16, 4]
0	0x3d3dfb7b	0.04638241
1	0x3d83e1b8	0.06439537
2	0xbd40d877	-0.047081437
3	0xbd29c32e	-0.041445903
4	0x3c87b9ae	0.016568031
5	0xbd6ea6b4	-0.05826445
6	0x3b381b43	0.002809242
7	0x3d4f246c	0.050571844
8	0xbc831a6e	-0.016003814
9	0x3ac664ab	0.0015136203
10	0x3ad57e54	0.0016288259
11	0x3b2155aa	0.002461771
12	0x3cdf1ec7	0.027236355
13	0xbcb9ce02	-0.02268124
14	0x3afa43df	0.0019093713
15	0x3ca21c62	0.019788925
16	0xbdae381d	-0.085067965
17	0x3d304566	0.043034934
18	0x3da32729	0.079664536
19	0xbaaef98a	-0.0013349515
20	0x3d29a8f3	0.04142089
21	0x3d9688d7	0.07350319
22	0xbd327848	-0.04357174
23	0xbd103eaa	-0.03521601
24	0x3bcddc1b	0.006282342
25	0x3d81f354	0.06345239
26	0xbc7c92af	-0.0154158315
27	0xbdb7029f	-0.08936047
28	0x3d78ea9b	0.060770612
29	0xbd7da4b3	-0.061924648
30	0xbd8ff1d6	-0.070285484
31	0x3d4411bd	0.04786848
32	0xbcf84fad	-0.03031143
33	0x3ca64607	0.020297064
34	0x3cc2819d	0.023743445
35	0xbbf2bf12	-0.0074080313
36	0xbd6a1b57	-0.05715498
37	0x3cc6e3e8	0.024278596
38	0x3d5791d3	0.052629303
39	0xbd59fcbf	-0.053219553
40	0x3c3e0ad4	0.011599261
41	0xbd51bd00	-0.051205635
42	0x3cd5dd89	0.026106613
43	0x3d064f5f	0.032790538
44	0x3b134c03	0.0022475726
45	0xbc6b4963	-0.0143607585
46	0x3c1197f8	0.00888633
47	0xbb8ec0dd	-0.004356487
48	0xbca21cd9	-0.019789146
49	0xbd2a9230	-0.04164332
50	0x3cccf0ab	0.025017103
51	0x3d1bdaa7	0.03805032
52	0x3ba032dd	0.004888876
53	0xbd8c05cd	-0.06837044
54	0x3b24130e	0.0025035772
55	0x3d985de2	0.07439782
56	0x3c905524	0.017618723
57	0xba93ca6a	-0.0011275534
58	0xbc1dee7f	-0.009639381
59	0x3ca925f1	0.020647975
60	0x3c596ec3	0.013271037
61	0xbc15af11	-0.009135977
62	0xbc0d3d60	-0.00862059
63	0xbc15d4e1	-0.009144993

encoder_cnn.encoder_pos.embedding.bias f4 [16]
0	0x3c315746	0.01082403
1	0x39682c5e	0.00022141772
2	0x3a8a70c9	0.0010562177
3	0x3c3d85a4	0.011567507
4	0x3c0d9756	0.008642038
5	0x3c930a4a	0.017949242
6	0xbb94f2e6	-0.0045455573
7	0xbc270167	-0.010193205
8	0x3bfa15f9	0.007632014
9	0xbc89c321	-0.016816678
10	0x3b3f2201	0.0029164555
11	0x3c17cddb	0.009265388
12	0x3c58e231	0.013237522
13	0x3b7ad97c	0.0038276603
14	0xbc780025	-0.015136753
15	0x3cad2788	0.021137014

decoder_cnn.conv1.weight f4 [16, 16, 5, 5]
0	0xbcba7d1c	-0.022764735
1	0xbc1cba02	-0.009565832
2	0xbd52cdf7	-0.051465955
3	0xbd4dd1a2	-0.05024875
4	0xbe838461	-0.25686935
5	0xbe0e9ad7	-0.13926254
6	0xbce89301	-0.02839041
7	0xbd52819e	-0.051393144
8	0xbd5f4a64	-0.054514304
9	0x3db6ee42	0.08932163
10	0xbd569459	-0.05238757
11	0xbd42517b	-0.047440987
12	0xbd1fb1fd	-0.038988102
13	0xbd28caf5	-0.04120918
14	0xbe373696	-0.17891917
15	0xbd854c40	-0.06508684
16	0xbd472f89	-0.048629317
17	0xbb8d7fc3	-0.004318209
18	0xbd840163	-0.06445577
19	0x3db92df4	0.09041968
20	0x3d9aa056	0.07550113
21	0x3d34a4a0	0.04410231
22	0x3dbe2b5b	0.09285613
23	0x3d5a2822	0.05326093
24	0x3c044df9	0.008075231
25	0xbc829771	-0.015941354
26	0xbbd7ce62	-0.006585882
27	0x3cbd6626	0.023119997
28	0x3ce055ed	0.027384723
29	0xbe02504a	-0.1272594
30	0xbd8bf9a5	-0.06834725
31	0xbe83a915	-0.25714937
32	0xbd964e98	-0.07339209
33	0xbdc4dbc5	-0.0961223
34	0xbcafb220	-0.021447241
35	0x3c9000db	0.017578533
36	0x3cc55c4e	0.024091866
37	0x3d605b9f	0.054774877
38	0x3dcd2947	0.10017639
39	0xbc3a1849	-0.011358329
40	0xbd9bcc58	-0.07607335
41	0xbde52b1d	-0.11189864
42	0xbd0d241e	-0.034458272
43	0xbd709d66	-0.058743857
44	0xbc719150	-0.014744118
45	0x3d981355	0.07425562
46	0x3d6de280	0.058077335
47	0x3d6d44af	0.05792683
48	0x3e06a426	0.13148555
49	0x3e79a98c	0.24381083
50	0xbdaee96c	-0.085406154
51	0x3d41b2b3	0.04728956
52	0xbc9b94e4	-0.018991895
53	0xbab77f2c	-0.0013999692
54	0xbd4dd22e	-0.05024927
55	0x3cb3605c	0.021896534
56	0xbdd59494	-0.1042873
57	0xbcd2991f	-0.02570778
58	0x3bcc51a6	0.006235319
59	0xbc0fd265	-0.008778189
60	0xbd12aaaa	-0.03580729
61	0x3c4422ad	0.011971158
62	0x3d6c23e2	0.057651408
63	0xbdc766cc	-0.09736404
64	0x3c8466bb	0.016162267
65	0xbc393fae	-0.011306686
66	0xbc24389e	-0.010023264
67	0xbdd065d0	-0.10175669
68	0x3d9b6198	0.07586974
69	0xbcdc0ea8	-0.026862457
70	0xb9da7d15	-0.00041673394
71	0xbce40b2a	-0.027837355
72	0x3d2e0706	0.042487167
73	0xbd42a6d2	-0.047522373
74	0xbca69818	-0.020336196
75	0xbd177d20	-0.036984563
76	0x3d6f03c6	0.058353208
77	0xbdd171c5	-0.10226778
78	0x3dbe7af1	0.09300793
79	0xbcaa1030	-0.020759672
80	0xbdc7c85e	-0.09755014
81	0x3db0f2ee	0.08640085
82	0xbd40f64f	-0.0471099
83	0x3e1a7a21	0.15085651
84	0x3ce0b937	0.027432067
85	0xbdc6ebb1	-0.09712923
86	0x3daf6014	0.08563247
87	0xbd2c902b	-0.042129677
88	0x3e631634	0.22176439
89	0xbb4f90ff	-0.0031672118
90	0xbd59f1a1	-0.05320895
91	0x3e09cba7	0.13456593
92	0xbc1f516e	-0.009724004
93	0x3ebf724a	0.37391883
94	0x3cac8f32	0.021064375
95	0xbd858b44	-0.065207034
96	0x3e22ec8b	0.15910546
97	0xbd118130	-0.035523593
98	0x3e1ad727	0.15121137
99	0xba58fdd7	-0.0008277571
100	0xbd9b30ea	-0.07577689
101	0x3c5779cc	0.013151597
102	0xbe9a9e2f	-0.3019881
103	0x3d048256	0.03235086
104	0xbdc4868e	-0.09595977
105	0x3dcd0ceb	0.100122295
106	0xbce5669c	-0.02800303
107	0xbda25aec	-0.07927498
108	0xbb60781c	-0.0034251278
109	0xbe04f2b0	-0.12983203
110	0xbe996339	-0.29958513
111	0x3cff3678	0.031153902
112	0xbdd9fe68	-0.10644227
113	0x3dcb751f	0.099344485
114	0xbd67ae78	-0.05656287
115	0xbd8dd87d	-0.069260575
116	0xbabf7bc1	-0.0014609025
117	0xbe064e7c	-0.13115877
118	0x3c94054d	0.018068934
119	0x3d9fb719	0.07798595
120	0xbdcd9a8d	-0.10039244
121	0x3de4702d	0.11154208
122	0xbd542968	-0.0517973
123	0x3e5455d2	0.20735863
124	0xbcc34155	-0.023834864
125	0xbe9bea59	-0.3045223
126	0xbd46d970	-0.04854721
127	0xbdf44a44	-0.119282275
128	0xbcc27f72	-0.023742411
129	0x3d73050f	0.059330996
130	0x3c1bf066	0.009517765
131	0xbe8207d7	-0.25396606
132	0x3b479cd8	0.0030458476
133	0xbd6da123	-0.058015
134	0xbb9cff87	-0.0047912034
135	0xbe1c9340	-0.15290546
136	0xbcfdedc7	-0.03099717
137	0xbd0eba92	-0.034845896
138	0x3c09eaa4	0.008417759
139	0x3d799b54	0.060939148
140	0x3a8f565e	0.0010935774
141	0xbd931650	-0.0718199
142	0xbcbe3fbb	-0.023223748
143	0xbcf1e288	-0.029526964
144	0xbca614e0	-0.020273626
145	0xbdc77e4b	-0.09740885
146	0xbcc2e4fc	-0.023790829
147	0xbd49ac4c	-0.04923658
148	0x3c8eee88	0.017447725
149	0x3d497674	0.04918523
150	0xbd40eb96	-0.047099672
151	0xbb3228a9	-0.002718488
152	0xbd3c217b	-0.045930367
153	0xb8823f3c	-6.2106614e-05
154	0x3ae9c120	0.0017834045
155	0xbd8b7092	-0.068085805
156	0xbb58f7d8	-0.003310671
157	0xbd7cc7f8	-0.061714143
158	0xb96f2c94	-0.00022809423
159	0xbbf77611	-0.0075519164
160	0xbd3e7714	-0.04650028
161	0xba5a8d45	-0.0008337091
162	0xbcf2c8be	-0.029636737
163	0x3b9d7dd9	0.004806262
164	0x3d0f8945	0.03504302
165	0xbd8120d4	-0.063050896
166	0x3aefc823	0.0018293898
167	0xbd2f429a	-0.042788126
168	0x3bc67c92	0.0060573304
169	0xbce2c570	-0.027682036
170	0xbd4cf5f1	-0.050039236
171	0xba9185f6	-0.0011102546
172	0xbc3b03f8	-0.01141452
173	0xba94b3d0	-0.0011345092
174	0x3c0deb74	0.008662093
175	0xbda0cae4	-0.07851198
176	0xbc833775	-0.016017655
177	0xbe5120bd	-0.20422645
178	0x3d4d2994	0.05008848
179	0xbe37cde5	-0.17949636
180	0xbdeeb74a	-0.11656053
181	0xbb965d10	-0.0045887306
182	0xbe289753	-0.16463976
183	0xbcaaf8dd	-0.02087062
184	0xbcdfc8bf	-0.027317403
185	0xbe3ca8c3	-0.18423752
186	0x3d2db01e	0.042404287
187	0xbe572d21	-0.21013309
188	0x3d7b5c86	0.061367534
189	0xbe21b1fe	-0.15790555
190	0xbe51b728	-0.20480025
191	0xbc93175a	-0.01795547
192	0xbda6404f	-0.08117735
193	0xbd685ff9	-0.05673215
194	0xbb5695ee	-0.0032743174
195	0xbe2f0080	-0.17090034
196	0xba1115a8	-0.0005534538
197	0xbb539ae7	-0.0032288374
198	0x3ba5757d	0.005049406
199	0x3dcd2bc6	0.10018115
200	0x3d07cdfa	0.03315542
201	0xbc08cd20	-0.008349687
202	0x3da57484	0.08078864
203	0xbc6ce0bd	-0.014457879
204	0xbe014e11	-0.12627436
205	0x3da473e1	0.08029915
206	0xbd8ab949	-0.067736216
207	0x3e0c33c0	0.13691616
208	0xbde4dace	-0.11174546
209	0x3e2520b2	0.16125754
210	0x3da8abab	0.08235868
211	0xbc4f3877	-0.01264774
212	0x3cc0eb60	0.023549736
213	0xbcb52d3c	-0.022116296
214	0xbdaac0f0	-0.08337581
215	0x3dfe1c4a	0.124077395
216	0xbdd0902e	-0.1018375
217	0x3e72d52f	0.23714136
218	0xbdbd8ed4	-0.09255758
219	0x3e9cfa0a	0.30659515
220	0x3d50bfd2	0.050964184
221	0xbca7a474	-0.02046416
222	0x3cf1b7b9	0.029506551
223	0xbd3fcb7e	-0.046824925
224	0xbd4d55df	-0.05013072
225	0x3c1a0623	0.009400877
226	0xbc7a7564	-0.015286777
227	0x3c09b9c8	0.00840611
228	0xbc36c24e	-0.011154724
229	0x3b6d46ce	0.0036205533
230	0x3d2ee23a	0.042696215
231	0xbea92470	-0.33035612
232	0x3b41332e	0.0029479968
233	0xbdcf9d7b	-0.10137459
234	0xbe96d717	-0.29460976
235	0x3bdf319a	0.006811333
236	0xbc214f0e	-0.009845508
237	0x3bd44694	0.00647814
238	0x3cea29cf	0.028584389
239	0xbcc39755	-0.023875872
240	0x3c8c8d5a	0.017157245
241	0xbdff3f35	-0.12463228
242	0xbc824227	-0.015900685
243	0xbd6e6c48	-0.058208734
244	0xbdca9db5	-0.098933615
245	0x3cc66dbc	0.024222247
246	0xb9fec5b6	-0.0004859396
247	0x3da30b36	0.07961123
248	0x3c3116c0	0.010808647
249	0x3d121fb7	0.035674777
250	0x3d06c386	0.03290131
251	0x3d0aa373	0.033847284
252	0x3d254a37	0.04035398
253	0x3d45e5cd	0.04831486
254	0x3d8524b5	0.06501142
255	0xbbc9151e	-0.0061365506

decoder_cnn.conv1.bias f4 [16]
0	0xba895292	-0.0010476878
1	0xbae9aecb	-0.0017828582
2	0x3d4b2365	0.0495943
3	0x3c38220b	0.011238585
4	0x3c899503	0.016794687
5	0xbb202bdd	-0.0024440207
6	0xbd47d3da	-0.04878602
7	0x3c40ca46	0.011766976
8	0x3b495232	0.0030719158
9	0x3c079236	0.0082746055
10	0x3cc1ded9	0.023665832
11	0x3c42a600	0.011880398
12	0x3c85e3f1	0.016344042
13	0x3cdcb4f8	0.026941761
14	0x3b97beff	0.004630923
15	0x3cdc0eb7	0.026862485

decoder_cnn.conv2.weight f4 [16, 16, 5, 5]
0	0xbd898679	-0.06715102
1	0xbb89c56d	-0.004204443
2	0xbd8350dc	-0.06411907
3	0xbe56b0d9	-0.209659
4	0x3da5808e	0.080811605
5	0xbe22b64d	-0.15889855
6	0x3d293deb	0.041318815
7	0x3b2c5223	0.0026294074
8	0x3c86225d	0.016373808
9	0x3dc88e41	0.09792758
10	0x3cc3972e	0.023875799
11	0xbd00eb67	-0.031474497
12	0x3c449134	0.01199751
13	0x3c048acd	0.008089733
14	0x3d1b4627	0.0379087
15	0xbdf3896b	-0.11891445
16	0x3ba86fb0	0.0051402673
17	0xbbef84c4	-0.007309528
18	0xbd3d06c3	-0.046149027
19	0x3de0f85a	0.10984869
20	0x3a0ffd0a	0.0005492723
21	0xbcc1f6d5	-0.023677269
22	0xbd41e5fd	-0.047338475
23	0x3d8dc743	0.06922772
24	0x3d720470	0.059086263
25	0x3e4257a7	0.18978749
26	0xbe130787	-0.1435834
27	0x3dbde735	0.09272615
28	0x3d30aa6c	0.043131277
29	0xbe3e86ee	-0.18606159
30	0x3d5c4211	0.053773943
31	0x3cd77127	0.026299072
32	0xbda3eeb5	-0.08004514
33	0x3e18ad39	0.14909829
34	0xbe3609a8	-0.17777121
35	0x3e592f36	0.21209416
36	0x3e50f3c8	0.20405495
37	0xbe623c6c	-0.22093362
38	0x3dfa0263	0.122074865
39	0xbdbd0ff8	-0.092315614
40	0x3c9091fa	0.017647732
41	0xbe4714af	-0.19441484
42	0x3cfe80b2	0.031067226
43	0x3e48af88	0.1959821
44	0xbe16e32f	-0.14735101
45	0xbde74989	-0.112933226
46	0x3c8bae79	0.017050968
47	0x3d5640cd	0.052307893
48	0xbc3933b8	-0.011303835
49	0x3d0b3622	0.033987172
50	0xbd65ee16	-0.05613526
51	0xbe15652a	-0.14589372
52	0xbd567c08	-0.05236438
53	0xbdaa296a	-0.0830868
54	0x3d48e69e	0.04904806
55	0xbd802e53	-0.06258836
56	0xbd25c53f	-0.04047131
57	0x3e036328	0.12830794
58	0xbdace8be	-0.084428295
59	0x3dec4fd3	0.11538663
60	0xbd57b48b	-0.052662414
61	0x3bffdb55	0.007808129
62	0xbd77222d	-0.060335327
63	0xbb06e41c	-0.002058274
64	0x3df539c6	0.1197391
65	0xbcab9cc7	-0.02094878
66	0x3d5a3159	0.053269718
67	0x3d04a09c	0.03237973
68	0x3d482223	0.04886068
69	0x3d8e01c3	0.0693393
70	0xbcb68c16	-0.022283595
71	0x3da81497	0.08207052
72	0x3d5cc765	0.053901095
73	0x3c2d3c4f	0.010573461
74	0x3daf5f19	0.0856306
75	0xbc4f9e7d	-0.012672064
76	0xbdd67cbf	-0.10473012
77	0x3e9ac2d3	0.30226764
78	0xbdd42dc2	-0.1036029
79	0xbd435f3b	-0.04769824
80	0xbcf5f5e2	-0.030024473
81	0x3d1cf718	0.038321584
82	0x3b11ec91	0.0022266249
83	0x3dfe3e7c	0.12414262
84	0x3cd55eed	0.02604624
85	0x3e7db078	0.24774349
86	0x3c244786	0.010026818
87	0xbcf5cc66	-0.030004691
88	0xbc4f2b25	-0.012644564
89	0xbd393317	-0.04521474
90	0x3c09b02d	0.00840382
91	0x3e2ca44d	0.16859551
92	0x3c7f5880	0.015585065
93	0x3c436ca0	0.011927754
94	0x3c8c4275	0.017121533
95	0xbd3d98b3	-0.046288203
96	0x3dfb0bde	0.12258123
97	0x3d61848c	0.055058047
98	0x3dc61c26	0.09673338
99	0x3d662bed	0.056194235
100	0xbd8edc90	-0.06975663
101	0x3e8d592d	0.27607098
102	0x3f26bf17	0.6513533
103	0x3b464c84	0.003025801
104	0x3ecf3b71	0.40475038
105	0x3beebdc0	0.0072858036
106	0xbd8c25ed	-0.06843171
107	0xbdb3fa58	-0.08787984
108	0x3a861ad2	0.0010231382
109	0x3de35324	0.11099842
110	0xbd2e8ab6	-0.042612754
111	0x3e11a1ed	0.14221926
112	0xbf7d30a3	-0.9890234
113	0x3d516fc8	0.051131994
114	0x3c4a508e	0.012348307
115	0x3c04790f	0.008085503
116	0x3d6de14e	0.058076195
117	0x3e0703e7	0.13185082
118	0xbd003a35	-0.03130551
119	0xbd055df7	-0.032560315
120	0xbe12c39a	-0.14332429
121	0x3d82df20	0.06390214
122	0xbdb94670	-0.09046638
123	0x3c8ac543	0.016939765
124	0x3e6c8c20	0.23100328
125	0x3d87dda7	0.06634074
126	0xbaffe14c	-0.00195221
127	0xbe2eeb8d	-0.17082043
128	0xbae5500f	-0.0017495173
129	0x3ce0fe72	0.027465079
130	0x3dccde69	0.10003359
131	0xbf4e98e0	-0.8070202
132	0x3d788823	0.060676705
133	0xbe6eee0c	-0.23332995
134	0xbf13a07d	-0.5766676
135	0xbec729ef	-0.3889918
136	0xbb04295a	-0.002016625
137	0x3dfad66a	0.122479275
138	0xbb8dc000	-0.0043258667
139	0xbe638350	-0.2221806
140	0xbe0020c7	-0.12512504
141	0xbd4fb6fd	-0.05071162
142	0x3d0955c8	0.033529073
143	0x3e2fab92	0.17155293
144	0x3de6dc3f	0.11272477
145	0x3a2c7e5d	0.0006580109
146	0xb95df2ef	-0.00021166702
147	0x3dc82d60	0.097742796
148	0xbb0786f5	-0.0020679806
149	0x3be04e44	0.0068452675
150	0xbc16a3b0	-0.0091943
151	0x3c92cb28	0.017919138
152	0x3c418d8e	0.011813534
153	0x3da0b69c	0.0784733
154	0xbcf0d612	-0.029398952
155	0xbcabc003	-0.020965582
156	0x3e5e8123	0.21728949
157	0x3d45c081	0.04827929
158	0x3e50943a	0.20369044
159	0xbd81aab5	-0.06331388
160	0xbd0bb28d	-0.034105826
161	0x3ca27ad4	0.01983396
162	0xbca834f3	-0.02053306
163	0xbd440556	-0.04785665
164	0xbd87c07a	-0.06628509
165	0x3d2a2265	0.041536707
166	0x3e2d80e6	0.16943702
167	0x3bd49bdc	0.0064883064
168	0x3c28e656	0.010308823
169	0xbd7599d9	-0.059961174
170	0xbd0f7bb1	-0.03503007
171	0xbbc4fb58	-0.006011408
172	0xbd02c1e2	-0.031923182
173	0xbe00c634	-0.12575608
174	0xbd2e52b7	-0.04255935
175	0xbc4c9e15	-0.012488862
176	0xbdcba13c	-0.099428624
177	0xbba89142	-0.005144269
178	0x3c94eaf3	0.018178439
179	0xbcb2a051	-0.02180496
180	0xbd053fd6	-0.03253158
181	0xbcfef711	-0.03112367
182	0xbd1fc29a	-0.039003946
183	0x3e3b992b	0.18320148
184	0x3cb30e92	0.021857534
185	0xbd3006ec	-0.04297535
186	0x3d51fb53	0.051265072
187	0xbdc173aa	-0.09445889
188	0xbb6d0ca2	-0.003617086
189	0x3de9b27b	0.114109956
190	0x3d03d12e	0.03218191
191	0xbd488db0	-0.04896325
192	0x3c17371b	0.009229447
193	0xbdc7c0c0	-0.09753561
194	0x3cf2f4d6	0.029657762
195	0x3d587a24	0.052850857
196	0x3d200a64	0.03907241
197	0x3c8b5fe4	0.017013498
198	0x3d3b0522	0.045659192
199	0x3da09f23	0.07842853
200	0xbf94dbf7	-1.1629628
201	0xbd3187fa	-0.043342568
202	0xbd8386a8	-0.06422168
203	0xbd9b84e6	-0.07593708
204	0xbe08f3ef	-0.13374303
205	0x3e84a6dc	0.25908554
206	0xbd6fc8e0	-0.05854118
207	0x3d62a1f7	0.055330243
208	0xbc9cca03	-0.019139295
209	0xbd2fd257	-0.042925205
210	0xbe0aea6b	-0.13565986
211	0xbd36c745	-0.044623632
212	0xbdc28467	-0.0949791
213	0xbc9559c9	-0.01823129
214	0x3dd88c17	0.10573595
215	0x3deeb3c2	0.1165538
216	0xbcf6af12	-0.030112777
217	0x3c9ba1a2	0.018997971
218	0xbc69e8e3	-0.014276716
219	0xbdaebc72	-0.08532037
220	0xbd8f3e11	-0.0699426
221	0x3d0cebda	0.034404613
222	0x3c210b28	0.00982932
223	0xbb8f707f	-0.0043774243
224	0x3da50028	0.080566704
225	0xbe4ebcb1	-0.20189168
226	0xbe9ad332	-0.30239254
227	0x3db3ee6c	0.0878571
228	0xbe82b695	-0.25529924
229	0x3e45b0c9	0.1930572
230	0x3ca9ff27	0.020751549
231	0xbd82de3f	-0.06390046
232	0x3c78dfff	0.015190124
233	0xbc9518fa	-0.018200386
234	0x3d415156	0.04719671
235	0xbd72638a	-0.05917696
236	0x3d365bae	0.044521026
237	0xbd7494b8	-0.05971214
238	0xbdea0b74	-0.11427966
239	0xbe518307	-0.20460139
240	0x3d6f31f0	0.058397233
241	0xbcbd0477	-0.023073418
242	0xbd140f21	-0.03614724
243	0x3db1ca42	0.08681156
244	0x3c9971fb	0.018731108
245	0xbe4fe47b	-0.20302002
246	0xbdeb56d6	-0.11491172
247	0x3db43dcc	0.08800849
248	0xbabae1ef	-0.0014258007
249	0x3d9ac668	0.07557374
250	0xbe2367b5	-0.1595753
251	0x3d65953f	0.056050535
252	0xbe1ad9b4	-0.1512211
253	0xbee41c7f	-0.4455299
254	0x3d902982	0.07039167
255	0x3cb68922	0.022282187

decoder_cnn.conv2.bias f4 [16]
0	0x3c0c929a	0.008579874
1	0x3ad52204	0.0016260748
2	0x3d88d70c	0.06681642
3	0xbcc7c84b	-0.0243875
4	0xbba3a6b0	-0.004994236
5	0xbb08c272	-0.0020867852
6	0x3c10c267	0.008835412
7	0x3ba5ae36	0.005056168
8	0xbccb041f	-0.024782239
9	0x3d251a87	0.0403085
10	0x3c8e27d6	0.01735298
11	0x3c2ed79b	0.010671522
12	0xbce81275	-0.028329113
13	0xbcf1af26	-0.029502463
14	0x3d58f5f2	0.052968927
15	0x3d8e2697	0.06940954
